…
 answers there does not satisfy my case.</p>

<hr>

<p>Following the tutorial here: <a href=""https://www.altumintelligence.com/articles/a/Time-Series-Prediction-Using-LSTM-Deep-Neural-Networks"" rel=""nofollow noreferrer"">https://www.altumintelligence.com/articles/a/Time-Series-Prediction-Using-LSTM-Deep-Neural-Networks</a>, 
Here is the model summary:</p>

<pre><code>_________________________________________________________________
Layer (type)                 Output Shape              Param #   
=================================================================
lstm_1 (LSTM)                (None, 49, 100)           41200     
_________________________________________________________________
dropout_1 (Dropout)          (None, 49, 100)           0         
_________________________________________________________________
lstm_2 (LSTM)                (None, 49, 100)           80400     
_________________________________________________________________
lstm_3 (LSTM)                (None, 100)               80400     
_________________________________________________________________
dropout_2 (Dropout)          (None, 100)               0         
_________________________________________________________________
dense_1 (Dense)              (None, 1)                 101       
=================================================================
Total params: 202,101
Trainable params: 202,101
Non-trainable params: 0
_________________________________________________________________
None
</code></pre>

<p>The size of my data set is 79005, sequence length is 50 and timesteps/batch size is 32. The problem is when I configure epoch to be 1, all goes perfect. But when I change it to 2, I get the below error <strong>right at the start of the second epoch</strong>:</p>
…
for f in filters[::-1]:
    X = Conv2D(filters = f, kernel_size = (3, 3), activation = 'relu')(X)
    X = UpSampling2D(size = (2, 2))(X)
    X = BatchNormalization(axis = -1)(X)
</code></pre>
<p>The model summary is</p>
<pre><code>Model: &quot;functional_13&quot;
_________________________________________________________________
Layer (type)                 Output Shape              Param #   
=================================================================
input_7 (InputLayer)         [(None, 32, 32, 3)]       0         
_________________________________________________________________
conv2d_24 (Conv2D)           (None, 30, 30, 32)        896       
_________________________________________________________________
max_pooling2d_12 (MaxPooling (None, 15, 15, 32)        0         
_________________________________________________________________
batch_normalization_24 (Batc (None, 15, 15, 32)        128       
_________________________________________________________________
conv2d_25 (Conv2D)           (None, 13, 13, 16)        4624      
_________________________________________________________________
max_pooling2d_13 (MaxPooling (None, 7, 7, 16)          0         
_________________________________________________________________
batch_normalization_25 (Batc (None, 7, 7, 16)          64        
_________________________________________________________________
conv2d_26 (Conv2D)           (None, 5, 5, 16)          2320      
_________________________________________________________________
up_sampling2d_12 (UpSampling (None, 10, 10, 16)        0         
_________________________________________________________________
batch_normalization_26 (Batc (None, 10, 10, 16)        64        
_________________________________________________________________
conv2d_27 (Conv2D)           (None, 8, 8, 32)          4640      
_________________________________________________________________
up_sampling2d_13 (UpSampling (None, 16, 16, 32)        0         
_________________________________________________________________
batch_normalization_27 (Batc (None, 16, 16, 32)        128       
=================================================================
Total params: 12,864
Trainable params: 12,672
Non-trainable params: 192
_________________________________________________________________
</code></pre>
<p>Because the output image has a different dimensions from the input image, I get the error</p>
<pre><code>InvalidArgumentError:  Incompatible shapes: [128,32,32,3] vs. [128,16,16,32]
…
    X = Conv2D(filters = f, kernel_size = (3, 3), padding = 'same', activation = 'relu')(X)
    X = UpSampling2D(size = (2, 2))(X)
    X = BatchNormalization(axis = -1)(X)
out =  Conv2D(filters = 3, kernel_size = (3, 3), padding = 'same')(X)
    
model = Model(inp, out)
</code></pre>
<p>The model summary now is</p>
<pre><code>Layer (type)                 Output Shape              Param #   
=================================================================
input_9 (InputLayer)         [(None, 32, 32, 3)]       0         
_________________________________________________________________
conv2d_22 (Conv2D)           (None, 32, 32, 32)        896       
_________________________________________________________________
max_pooling2d_10 (MaxPooling (None, 16, 16, 32)        0         
_________________________________________________________________
batch_normalization_20 (Batc (None, 16, 16, 32)        128       
_________________________________________________________________
conv2d_23 (Conv2D)           (None, 16, 16, 16)        4624      
_________________________________________________________________
max_pooling2d_11 (MaxPooling (None, 8, 8, 16)          0         
_________________________________________________________________
batch_normalization_21 (Batc (None, 8, 8, 16)          64        
_________________________________________________________________
conv2d_24 (Conv2D)           (None, 8, 8, 16)          2320      
_________________________________________________________________
up_sampling2d_10 (UpSampling (None, 16, 16, 16)        0         
_________________________________________________________________
batch_normalization_22 (Batc (None, 16, 16, 16)        64        
_________________________________________________________________
conv2d_25 (Conv2D)           (None, 16, 16, 32)        4640      
_________________________________________________________________
up_sampling2d_11 (UpSampling (None, 32, 32, 32)        0         
_________________________________________________________________
batch_normalization_23 (Batc (None, 32, 32, 32)        128       
_________________________________________________________________
conv2d_26 (Conv2D)           (None, 32, 32, 3)         867       
=================================================================
Total params: 13,731
Trainable params: 13,539
Non-trainable params: 192
_________________________________________________________________
</code></pre>
",How make size output image original one compute loss CNN I define CNN model autoencoder follows filters X Input shape encode f filters X Conv D filters f kernel size activa
…
